models/saved/lstm_best.pth (torch, 949781 bytes, 23 tensors)

lstm.weight_ih_l0 f4 [512, 50]
00000000: b0b0 be3c 33cf 8fbd 0612 87bd 8e61 09bd
00000010: 24ae 05bd 96fa cf3d a870 e03c 9e72 08bc
00000020: b1d1 5b3d fa8f 49bd 9faf 9b3d c738 a93c
00000030: f421 0b3c 91b3 efbc ce20 b0bb 4ac9 183d
00000040: 08ec c6bd 44a9 a13d d376 533d ee6f 8bbb
00000050: 9c77 d8bc 7fa6 a03d b540 c8bc eb20 9a3c
00000060: fbb1 d3bb a7b3 673d 9ccc 93bd 0dd5 2dbd
00000070: 09f8 25bd 49ae bf3d 4614 d4bc 7376 053e
00000080: 57a9 37bd b8fe 773d 4dd6 7cbd ffd8 15bd
00000090: 971e e9bd c81a 163c 301f c9bd ee33 93bd
000000a0: d2b0 a4bd b87d 833d 0075 e0bd d337 f53d
000000b0: 23f3 e63d 2f16 73bd fd9f 233d 90fc 8b3d
000000c0: 03f4 1f3d f79f aebb 6b65 933c 35b0 24bd
000000d0: dd63 633c 1e69 38bd 4641 70bd 1005 a2bd
000000e0: 21ab eabb 5d07 263d 0883 24bd f407 28bc
000000f0: 8ff6 8dbc 3d34 8abd 6a00 793d 815b 863d
00000100: 4f7a 313d e21d 963d b4a7 29bc 4f1b febc
00000110: 8649 6dbd 156a b03c c42d 46bb 0de5 863d
00000120: a794 d23d 227b 48bd 577f 82ba 46cf 153d
00000130: 0e1b b5bc 2b7e 0bbd 7f8e 5dbc a35a d03d
00000140: e697 b4bb c08b 65bd d7e9 5dbd e196 0d3e
00000150: 75ed 813c 6913 923d a37e e43b 02dd 513d
00000160: 1ca7 d3bd 36b4 053d 3698 8e3d bfd1 a53d
00000170: cde8 febb 342a 5b3a 4387 39bd e387 7fbb
00000180: b0fe 223d 5b3c 0dbc 08bc ecbb 05ce 533d
00000190: 805a 8e3c fb69 a9bc 228f a3bc dc51 e8bd
000001a0: 710d 773d a531 c5bd 97f8 2abe 1fe6 cdbc
000001b0: a3b0 563c 5fdb 963b fa67 163d 0516 b3bc
000001c0: b6ed dc3b 38c2 01be a1f8 dfbd 33d7 d63c
000001d0: 1d0b e83d 8070 6dbb b0fe 29bd aae3 00bc
000001e0: 584b c5bd 5804 0bbe 15f7 b6bd a450 fc3c
000001f0: 3bf6 76bd 8c78 03be 492f 00be 4d8d 423d
00000200: 32ab 7a3c 91af b4bd 5e93 74bd 9713 aa3d
00000210: aefe 76bd 2da6 e7bd 47c9 bf3b 2586 a4bd
00000220: 0726 33bd 46f5 debc 6725 13be d070 8f3d
00000230: 7d0f cabc 46a8 f83b 77f4 2fbe 902a 4ebc
00000240: 5a17 023c 2d43 c43c 4b40 19bd e072 a73d
00000250: dd11 aabd 923b 403d 81e5 acbd f0df b43c
00000260: 8374 f4bd c391 8bbd e550 213d aaf8 11bd
00000270: ea67 d8bc 0a25 023d 0210 a4bd 9ed1 bebd
00000280: d35a 27bc 8091 c4bd 1b38 48bd b984 243d
00000290: 4229 1cbb bad4 3cbc 738c 1abd 3076 b83c
000002a0: 73fc 783d e291 47bd 451f 923d 670b 01bd
000002b0: a189 453d fe81 55bd cf6e bdbd 7717 debd
000002c0: f477 f1bd db7b a5bd 4fbb 9fbd d440 eabc
000002d0: ca18 d6bc 5a5d 903c aff4 16bd 9ecf ac3b
000002e0: 4128 b1bd 1178 6f3d 5b79 c13c 78e4 8bbd
000002f0: 8961 72bc abc7 0cbd 31e5 78bc deac 5b3d
00000300: 9c4b 54bd 0d94 1dbd 3009 a0bd e6e7 56bd
00000310: f85e 7b3d 229b 0fbd 5a1d 1d3d eb13 dbbd
00000320: a1ed 163d 9de2 0fbd d80b f6bb 2f76 9fbd
00000330: 65ea 3cbd 0824 ce3d 112a b1bd 1418 a03d
00000340: 0851 1cbc a2ca 86bd 7af1 a6bd 216d 67bd
00000350: f553 21bd d51c 52bd 7dee 1e3b de59 81bd
00000360: 15b8 353c 3837 063d 6851 05bd 4392 a5bd
00000370: f66c e03d 0bae ab3c 7a23 acbc 1060 babd
00000380: 4b46 31bd d7af 7dbc 471a 2f3d 6532 f2bd
00000390: 928f 143d 5488 cb3b e762 bdbd 41fa 903d
000003a0: 6354 3d3d aa3f 17bd 758a d33c d2a4 5ebd
000003b0: 1452 92bd 3f56 4cba dab3 75bc c268 07bd
000003c0: b3b5 febc b608 8fbd a3de aebd 6f7f c6bc
000003d0: 732c a3bd 69da 64bd 6a1a bdbd 9de3 aabd
000003e0: 84c3 99bd 93c7 1d3d 63ec 63bd e748 cbbc
000003f0: 24df 993d eefa a03d 4466 bdbd 0af6 4ebd
0.02327761 -0.07021942 -0.065952346 -0.0335403 -0.032636777 0.10155217 0.027397469 -0.008328108
0.053666774 -0.049209572 0.076018564 0.020656956 0.008491982 -0.029260429 -0.0053750044 0.03730134
-0.09712988 0.07893613 0.05162699 -0.0042552864 -0.026424222 0.078442566 -0.024444917 0.018814525
-0.006460426 0.056567814 -0.072167605 -0.04243951 -0.040519748 0.09359414 -0.025888573 0.13033466
-0.04483923 0.060545653 -0.06172781 -0.036583897 -0.11382788 0.009161659 -0.09820402 -0.07187639
-0.08041538 0.06420463 -0.10959816 0.11973538 0.112768434 -0.059347328 0.0399475 0.06835282
0.039051067 -0.005329128 0.017992696 -0.040207107 0.01387879 -0.045022123 -0.058656 -0.07911122
-0.0071615134 0.040534366 -0.040164024 -0.010255802 -0.017329482 -0.06748245 0.06079141 0.06560422
0.043329533 0.073299184 -0.010354925 -0.031018881 -0.057931446 0.021534959 -0.003023968 0.06586657
0.102822594 -0.048945554 -0.0009956163 0.036574624 -0.022107627 -0.03405587 -0.013522743 0.101735376
-0.005511272 -0.05604148 -0.054178085 0.13827087 0.015860299 0.071326084 0.006973104 0.05123616
-0.10334608 0.032642566 0.06962626 0.080966465 -0.007779217 0.0008360476 -0.04529501 -0.0038990907
0.03979367 -0.008620347 -0.0072245635 0.051710147 0.017377138 -0.020680418 -0.019965712 -0.113437384
0.060315553 -0.096286096 -0.16696392 -0.025134144 0.013103637 0.004603788 0.036720254 -0.021861086
0.0067422045 -0.12671745 -0.10936094 0.026225662 0.11330245 -0.0036230385 -0.041502655 -0.007866779
-0.09633511 -0.13575876 -0.08933846 0.030800171 -0.060293417 -0.12838954 -0.12518038 0.047498036
0.015299605 -0.08822549 -0.059710853 0.08304518 -0.060301475 -0.113109924 0.0058528516 -0.080333985
-0.043737438 -0.027216565 -0.14369737 0.07003939 -0.024665589 0.007588419 -0.171831 -0.01258339
0.007940138 0.023957813 -0.03741483 0.081762075 -0.083041884 0.04693181 -0.08442212 0.022079438
-0.11936285 -0.06814911 0.039383788 -0.035637535 -0.026416738 0.031773604 -0.08010866 -0.09317325
-0.010214525 -0.095980644 -0.04888163 0.040165637 -0.0023828303 -0.011525327 -0.0377316 0.022517294
0.06078763 -0.04872311 0.071348704 -0.031505015 0.048226956 -0.052125923 -0.09249651 -0.10844319
-0.11790457 -0.08080264 -0.07799398 -0.028595366 -0.026134867 0.017622638 -0.036854442 0.0052737733
-0.08650256 0.058464114 0.023617437 -0.06830686 -0.014793762 -0.034370106 -0.015191362 0.053631656
-0.05182992 -0.03847127 -0.078142524 -0.05246725 0.061369866 -0.035060056 0.03835807 -0.106971584
0.036847714 -0.035128225 -0.007508736 -0.077862136 -0.046121974 0.10065466 -0.08650602 0.078170925
-0.009540804 -0.06581618 -0.08151527 -0.056500558 -0.03938671 -0.051297028 0.0024251037 -0.06315969
0.011091252 0.032767504 -0.03254834 -0.08084538 0.10958283 0.020957014 -0.02101301 -0.09100354
-0.043279927 -0.015483818 0.04274967 -0.11826018 0.03626973 0.00621132 -0.0924738 0.07078982
0.046223056 -0.03692595 0.025822857 -0.054356404 -0.071445614 -0.0007794834 -0.014996493 -0.03305889
-0.0310925 -0.06984083 -0.08538558 -0.024230687 -0.079674624 -0.055872355 -0.09233554 -0.08344195
-0.07507995 0.038520407 -0.055645358 -0.024815036 0.07513264 0.07860361 -0.09248021 -0.05052761

lstm.weight_hh_l0 f4 [512, 128]
00000000: fba7 8b3d 84b6 91bc bb22 193d 2211 8abd
00000010: 0157 f6bc cfae 253d 556a e0bc 3e43 023d
00000020: 0e87 223c 9cdf 213d 4325 d13d c7d6 87bd
00000030: 4c36 093e 98a9 d13c da00 babd 39c4 403d
00000040: bd40 b4bd 640c fe3d 1a21 d43d d022 f7bd
00000050: b08d 3bbc 42ea 62bd 769d 013e 47c0 833d
00000060: 1be5 6bbd e34e 54bd 41ac c93d c086 46bc
00000070: 0412 f93b 379a 1e3d f697 b9bd 61cc ad3d
00000080: 89ab cbbc 3753 aa3c 9c11 cb3d 2e04 1abd
00000090: d203 68bd 1208 ff3c 6104 87bd 6f06 cabd
000000a0: 8e55 cabd ed2c c6bc afe1 f3bd aff1 6cbd
000000b0: 9e42 273c 5a22 b7bd 185b ee3d 5e04 b0bd
000000c0: e202 c63d cbee 9e3c b7f7 bb3d becd 2e3d
000000d0: 4ae1 2f3d bd0a ab3d 0c95 06bd 51f8 863d
000000e0: 701c babc 914e 9e3b 33a4 89bd 4d70 053d
000000f0: 8aa8 b4bd 40e1 a43d 8109 053d 15e3 16bd
00000100: 1bb5 afbb e921 5b3d 6c67 7dbc 1fc6 c3bc
00000110: f2e1 79bd 4789 13bd e816 673c 4136 453d
00000120: e69f d8bc a160 c7bc cab0 38bb 4def 2f3d
00000130: a85b d43d 4e3c cebb 5173 bfbd 61aa c33d
00000140: d010 ab3a a587 d83d 35a5 87bc a66b 25bd
00000150: a80f 30bd 28aa 1f3d efb6 71bd c749 343d
00000160: 9c61 bcbd d683 b2bd 8ef9 00be a627 d43d
00000170: 5d1a 18bd 008b e7bd 0d64 cd3b 8bad 4b3d
00000180: 72d8 a1bd e3a2 95bc 89e0 94bd 2fdc 083e
00000190: dd02 663d 9a4e ac3b 2261 9a3c 59e2 af3d
000001a0: fc6d 8bbd b38b 0cbd f115 92bc 473b 85bb
000001b0: 00cb f9bd 5dd7 d2bc e63b 1abd 3909 aa3b
000001c0: f0db 4e3d 498e 28bd da50 9b3c d494 bc3d
000001d0: f082 a03d 1933 5fbd 273f 95bd f231 053e
000001e0: 7424 0dbc bfad 59bd 326e 723c 8264 df3d
000001f0: 1812 65bd e1c0 a13c 0cf2 8d3d 2c27 e83c
00000200: 3f27 083d ae24 a1bc 1b20 af3d 919e 923d
00000210: 87a6 89bd fe29 233d 3cf5 753b b82a 123d
00000220: e3c1 433d 428a 823d b827 7a3d 557b 54bc
00000230: 9390 443d a07f 18bc c8d5 dabd 2521 bcbd
00000240: 7bec 773d f42f 433d d3a4 dfbb d9b7 273d
00000250: 5bb8 13bc 54ce 4f3d adca ac3d d9fc 3abd
00000260: 1443 923d cf9a 683d c06a 8dbd bda1 193c
00000270: 22b9 e3bc 1eda c8bd a109 9ebd 0574 c13c
00000280: f304 f13c 19e5 5c3c d8fd 1cbd 3b0a 423d
00000290: bad1 663d d16d bdbd ebbd 163c 4a56 0b3a
000002a0: 2cbc 853d b370 c3bd e391 fa3c c46d 193c
000002b0: 123d 88bd 9168 b7bc f1de 003e f42c 63bc
000002c0: 44ec 543c 2b68 37bd becf 7e3d 48c0 803d
000002d0: b167 8fbc e880 ee3c 76a3 5a3c 683f 263d
000002e0: f456 0839 510b 4f3c 16a9 9d3c 57a8 a33d
000002f0: a1d4 c7ba ac1d a4bc 8f70 87bd d1b9 a23d
00000300: a2dd 97bd f582 f23a 7d24 223d b53e c03b
00000310: a6e8 43bd 1c6a e33d 4ac5 5a3d 0cb9 243d
00000320: c3fe 873d eaee 0b3b 8f16 d3bc fd06 bf3d
00000330: ec59 0ebd fba8 ceba 60bf a4bc 6e1a 203b
00000340: 281c 96bc ccca 0abd 8e0e 9d3c f0a9 66bd
00000350: 48a8 183d 353b 523c f73f 05bc c6d3 0b3d
00000360: 6cbc f5bd d3e6 92bd 71d0 483d 0468 a83d
00000370: 858c 63bd 82bd 0c3b 629e bcbd ac7b 223d
00000380: ca2d b43d 2786 4f3d 1d4e 083d a717 b8bd
00000390: 9833 c1bc 0b6f a63c 80f1 b1bd a2f0 823d
000003a0: f967 96bd 5003 b03d 98cf 8dbd 4c71 aabc
000003b0: b368 903c a6cb 87bd 0b36 523c f7fb d23d
000003c0: 96ca 1bbd 6b66 a33d 5e60 66bc 1679 eb3c
000003d0: 9753 1ebd e4e2 73bd 4171 8fbd 70b3 a93d
000003e0: f612 c33d 7b24 ad3c ef98 e3bd 8281 febc
000003f0: e030 023d b12e 97bc 7864 9abd 35dc b93b
0.06819149 -0.017787226 0.037386637 -0.06741549 -0.030070784 0.040449914 -0.027394453 0.03180241
0.009919895 0.03951989 0.10212185 -0.066327624 0.13399619 0.025593564 -0.09082194 0.047062133
-0.0880141 0.12404707 0.10357876 -0.12067187 -0.011447355 -0.055399187 0.12657723 0.06433158
-0.05759154 -0.051833045 0.09847308 -0.012117088 0.0076010246 0.03872129 -0.090621874 0.08486248
-0.024862068 0.020791633 0.09915468 -0.037601642 -0.05664427 0.031131778 -0.06592632 -0.09864508
-0.098795995 -0.024191344 -0.1190828 -0.057847675 0.010208754 -0.08942099 0.116384685 -0.08594583
0.096685186 0.019400975 0.09178107 0.04267668 0.04293946 0.083516575 -0.032856986 0.06590331
-0.022718638 0.004831143 -0.06720772 0.0325778 -0.08821209 0.080507755 0.032479767 -0.036837656
-0.0053621656 0.053499136 -0.015466552 -0.023898182 -0.061006494 -0.03601959 0.014104582 0.048147444
-0.026443433 -0.024338068 -0.0028181546 0.042952824 0.103690445 -0.00629381 -0.09348167 0.095539816
0.0013051275 0.10572747 -0.016558269 -0.040385865 -0.04298368 0.038980633 -0.05901235 0.044015672
-0.09198305 -0.08716552 -0.12595198 0.10359125 -0.037134517 -0.11305809 0.0062680305 0.04972605
-0.07902612 -0.018266147 -0.07269389 0.13365243 0.056155074 0.0052583935 0.018845145 0.08588094
-0.06808087 -0.034312915 -0.017832728 -0.0040659043 -0.12196922 -0.025737459 -0.03765478 0.0051890877
0.050502717 -0.04115132 0.018959451 0.09208074 0.07837474 -0.05449209 -0.07287436 0.13007334
-0.008614648 -0.053144213 0.01479678 0.10907842 -0.05592546 0.019745292 0.069309324 0.028338991
0.033240553 -0.01967081 0.085510455 0.071591504 -0.06721216 0.03983497 0.0037530204 0.03568527
0.047792327 0.06374027 0.061073035 -0.012968858 0.04798944 -0.009307772 -0.10685307 -0.09186009
0.06052826 0.047653154 -0.0068250685 0.040946815 -0.009016122 0.05073388 0.08437095 -0.04565129
0.071417004 0.056788262 -0.069051266 0.00937694 -0.02779824 -0.098072276 -0.0771668 0.023614893
0.029421305 0.0134823555 -0.03832802 0.047373038 0.056352355 -0.092494614 0.009200553 0.0005315287
0.065300316 -0.0954298 0.030587142 0.009364549 -0.06652273 -0.022388728 0.12585045 -0.013865698
0.012995783 -0.044777077 0.062209837 0.06286675 -0.017505499 0.029114202 0.013344636 0.040587813
0.00013002363 0.012636975 0.019245666 0.07991093 -0.0015245863 -0.02003368 -0.06613266 0.07945598
-0.0741532 0.0018502163 0.03958558 0.0058668503 -0.047829293 0.11104223 0.053410806 0.040215537
0.06640389 0.002135212 -0.025767593 0.09327505 -0.034753725 -0.0015766913 -0.020110786 0.0024429816
-0.018323973 -0.03388481 0.01917198 -0.05631441 0.03726986 0.012831499 -0.008132926 0.03413751
-0.11998829 -0.071729325 0.04902691 0.082229644 -0.05555393 0.002147526 -0.092098966 0.039668724
0.08797796 0.050665047 0.03327762 -0.08988886 -0.023584172 0.020316621 -0.086886406 0.06393553
-0.0734405 0.08594382 -0.06924361 -0.020805977 0.01762805 -0.0663064 0.012830268 0.10301965
-0.038034998 0.07978519 -0.014061062 0.028744262 -0.038653936 -0.05954255 -0.07004023 0.08286178
0.09525101 0.02113556 -0.11113154 -0.031067614 0.031784892 -0.018454881 -0.07538694 0.0056720027

lstm.bias_ih_l0 f4 [512]
00000000: 9f19 643b 6e01 a6bd edcc d6bd 8a5e 1d3d
00000010: 4ceb 5fbc 1e51 5fbc b590 0abd 14b6 d83d
00000020: f659 cbbd fe41 6b3c dc52 ddbc 3008 3abc
00000030: 1399 483d 52b6 18bd 4e1e fdba 3263 5a3d
00000040: e09f 623d 2088 a23c bac0 243d d4f2 8bbd
00000050: c1e0 8fbd 41ba 8d3c b2f9 683d f553 a03c
00000060: a1f3 0a3d 9f6b 833c 3f36 da3d e741 40bc
00000070: 9fce 0f3d 2a06 943a 3a97 2dbd 4632 9cbb
00000080: 0338 c33d 6175 39bd 1964 8f3d 498d 4cbd
00000090: d332 7bbc 9322 963d a205 e5bc 461f 5fbd
000000a0: 28a6 39bd 8b26 a8bd a412 eabb 7912 773d
000000b0: f835 563d 3197 90bc 788d cd3c e3f4 7cbd
000000c0: d5f8 bbbc daea 37bc 1e96 b33c d6aa 863d
000000d0: fd49 de3c 1ece 36bd af1a 7cbc fc9a 84bb
000000e0: d1fa 863b 712e 7abd 382b 05bd 6452 033c
000000f0: 475a 523c 0461 77bc 6e5c 9b3c 8fc7 8d3d
00000100: 1082 30bd 0bae 8e3b e735 aebc 690a f83c
00000110: a7cf 98bd 1add a0bc 4c5a 41bd f180 113d
00000120: ae9b 023c 1748 31bd e753 94bd a88b 2d3d
00000130: 123e 82bc b73b 7bbd 0dbc ddbb 49eb b5bc
00000140: 6675 c3bb 4c8f 873b 5347 b93b ea96 153d
00000150: 6214 cc3c 9efd 93bc 3f5b 4fbc 1d77 1dbd
00000160: 3133 47bd 3e1f 373d b41c 1c3c 9a6f bebd
00000170: 1693 99bb 8500 b93c 33af 423d 40f6 af3c
00000180: bff9 62bd 4f91 3dbd 724d e5bd 6002 90bd
00000190: 5eaf c63b 0745 3f3c 7383 ebbd 8fb5 6e3d
000001a0: 160a 333d 237d ccbd c01d 1cbd a115 0a3c
000001b0: 691b 85bd dff2 2bbd 0ed6 7c3d 7cd6 cebd
000001c0: 0062 733d 7367 acbc f72c 01be 56f2 71bd
000001d0: fbd3 b2bc cfdc 023d fb0f d7bc c6a4 9c3c
000001e0: 4102 c53c 620f efbc 7eea 51bd 8d20 b8bd
000001f0: 9d7c 063d d9fa c53d 47f7 96bd 39ed fe3d
00000200: 3f59 953d c73f 94bc db30 6f3c c224 253b
00000210: aa4b 313c 9221 55bd ca07 663c cf2f f93d
00000220: 2b7a 92bb b806 97bc 408b 95bc 9209 a6bd
00000230: f1eb 7d3d f89d 553d d60e ae3c 686e 7dbd
00000240: 625b 843d ac88 d33c 0035 f43c 053a a53d
00000250: 4782 30bd 1f07 763d 83b5 d2bd f5d8 933d
00000260: aeef cdbd 9b08 41bd aed6 c9bc ab33 8dbb
00000270: 647c bfbd 5f03 f03d 0e41 743d ebe6 843d
00000280: 5edd 9b3d 56c9 563d fa20 db3d 48a2 a03d
00000290: 53a0 353d a3f6 b83d 2e6a 3abd 59e0 0bbd
000002a0: 6e10 e73c 4c0b 9fbc c8fa a2bd 7d15 52bd
000002b0: 07cc 7ebd 3f4f b73d 623e fd3c a4a7 c33c
000002c0: 699e a9bd 40d7 27bd b4c2 403c 8ab2 d1bc
000002d0: 3f83 86bc 8b09 9e3c 648b 41bd 991e d43d
000002e0: 1eaa b4bd 1ec2 3fbd 068d e43c ff36 95bd
000002f0: d7ac 6d3d fd0f 8cbc 7dd3 793d f108 22bd
00000300: c3d9 8fbd c584 3abc a4a5 233c 7927 00bc
00000310: bcae 353d 65e8 9bbd f640 b6bd db27 d9bd
00000320: 0f89 0bbd efe2 833d 7342 5bbd 0976 39bd
00000330: de4b f0bd 4609 99bd 33f9 453d 5608 febd
00000340: bfa0 9ebd c838 b9bd a666 213c 37ab 053d
00000350: 6622 21bc 6d40 dcbd 2437 c73d 551a 14bc
00000360: 460a 3b3c fa39 93bd 1771 6d3d d28c fe3c
00000370: c02d cd3d f046 dfbc 4099 5d3c eb9a 0ebd
00000380: e27c 44bd 5d1a 873c 9828 c7bd 44b0 d03b
00000390: 2378 a03c 3e74 e9bd 60b7 f13c 4a46 563d
000003a0: 968a d0bd 4f96 9d3b 654b a93b 0660 3abb
000003b0: be77 8ebd eaec a0bd f958 62bd 8523 403d
000003c0: f154 4cbd 2185 5a3c 8192 e03b 8273 a3bd
000003d0: 1f89 5bbd 1d9e b3bc cae2 90bd 63b4 163d
000003e0: c6f2 843d 27cd afbd 1bfb e13b 5f49 89bd
000003f0: b902 a3bc 4323 3ebc e3b8 793c c635 ed3d
0.003480531 -0.081057414 -0.10488305 0.038420238 -0.013666939 -0.01363018 -0.03382941 0.10581604
-0.09929268 0.0143589955 -0.02701705 -0.011354491 0.048974108 -0.03728325 -0.00193114 0.053317256
0.05532825 0.0198403 0.04022286 -0.06833425 -0.0702529 0.017300727 0.056878753 0.019571284
0.03392375 0.016042529 0.10654878 -0.011734462 0.03510916 0.0011293341 -0.04238055 -0.0047667352
0.09532168 -0.045277957 0.07001514 -0.049939428 -0.015331942 0.07330813 -0.027956787 -0.054473184
-0.045324475 -0.082104765 -0.0071433354 0.06032035 0.052297562 -0.017650219 0.025091872 -0.06175698
-0.0229458 -0.011225427 0.021922167 0.06575553 0.02713489 -0.044630162 -0.015387221 -0.004046796
0.004119255 -0.061079446 -0.03251192 0.008015249 0.012838907 -0.015098814 0.018964972 0.069228284
-0.043092787 0.0043542436 -0.021265937 0.030278401 -0.074614815 -0.01963668 -0.047205254 0.03552336
0.007971687 -0.04328164 -0.072425656 0.042369515 -0.015898738 -0.061336245 -0.006766802 -0.02220692
-0.0059649227 0.0041369554 0.0056542545 0.036520876 0.024912063 -0.01806527 -0.012656032 -0.038443673
-0.048632804 0.04470753 0.009528328 -0.0929863 -0.0046867235 0.022583256 0.047530364 0.021479726
-0.055413958 -0.046281155 -0.11196412 -0.07031703 0.006063386 0.011674172 -0.11499681 0.058278617
0.04371079 -0.099848054 -0.03811431 0.008428008 -0.06499369 -0.041979667 0.061727576 -0.100995034
0.059419632 -0.021045422 -0.12614809 -0.059069 -0.021829596 0.03194886 -0.026252737 0.019121539
0.024048926 -0.02918214 -0.05124902 -0.089905836 0.032833684 0.09666986 -0.07371383 0.124475904
0.07292413 -0.018096818 0.01459905 0.0025198911 0.010821262 -0.05203397 0.014039943 0.12167322
-0.00447013 -0.018435821 -0.018254876 -0.08107294 0.06199259 0.052152604 0.021247309 -0.06187287
0.064627424 0.025822006 0.029810429 0.08067707 -0.043092992 0.060065385 -0.10288527 0.07219116
-0.10055481 -0.047127347 -0.0246385 -0.004309138 -0.093498975 0.11719393 0.059632353 0.064893566
0.07610582 0.052438103 0.10699649 0.07843453 0.04434235 0.09031417 -0.045511417 -0.0341495
0.028206076 -0.019414566 -0.07957989 -0.051290024 -0.062206294 0.08950662 0.030913536 0.023883648
-0.082821675 -0.040976763 0.011765171 -0.02559783 -0.016420005 0.01929166 -0.047252074 0.103573985
-0.0882151 -0.046815984 0.027899276 -0.0728588 0.05802616 -0.017097468 0.060992707 -0.03955931
-0.070239566 -0.011384194 0.009988222 -0.007821911 0.044356093 -0.07612685 -0.08899109 -0.10603305
-0.034066256 0.064397685 -0.053530168 -0.045278583 -0.117332205 -0.07472472 0.048333358 -0.12403934
-0.07745504 -0.09044033 0.009851133 0.032633986 -0.009834861 -0.10754476 0.09727314 -0.009039481
0.011416024 -0.071887925 0.05796918 0.031073008 0.10018492 -0.027255505 0.013525307 -0.03481571
-0.04797066 0.016492063 -0.097245395 0.0063686687 0.019588536 -0.113991246 0.029506385 0.052313127
-0.10182683 0.004809178 0.0051664584 -0.0028438582 -0.06956433 -0.07857688 -0.055260632 0.046908874
-0.049885694 0.0133374045 0.006853402 -0.07981016 -0.053597566 -0.02192598 -0.070745066 0.036793124
0.06491618 -0.085840516 0.006896389 -0.067034476 -0.01989876 -0.011605087 0.015241834 0.11582522

lstm.bias_hh_l0 f4 [512]
00000000: 3f63 1b3d 7bb7 77bd a001 e1bd d2ae 133d
00000010: 0aab 8d3d 4f90 e13b eead b23d a4cb b63d
00000020: ee11 24bd f050 2ebc a5f0 6abd 3566 363d
00000030: caea 463c e8b6 80bd 94bb e83c ca3d d4bc
00000040: 460c 3cbd 00cf 8abc c064 343d 5c73 adbc
00000050: 0e6a 3b3d 486a 5abd be05 6cbd 1b2d bcbc
00000060: 75ed 4bbd 94b0 073d 15ae ca3d cdcb b5bc
00000070: 744c a1bb d91a 903d 6be8 63bc dc5f 9d3d
00000080: 2dcf b13d dd63 eb3c d40c febc 2215 fe3b
00000090: 3ad5 5dbd 8ced cc3d 0f45 1f3d cf47 813d
000000a0: fb0b 82bd 2e8f 183c 15de 2dbd 90c2 27b9
000000b0: 2bb6 793c 485d a3bc ffd7 e23d 3b4c 2abd
000000c0: da13 4dbc 04eb 90bd eca1 8e3d 3e3d f6bc
000000d0: ea5c 483d fb55 c23b f54c febc 9a60 583d
000000e0: 735b 693d 1a69 833c fd0b e2bc 07a3 433d
000000f0: 2bee dcbd 34f0 9bbd 94f0 a2bd 70f7 cf3c
00000100: 95d9 b3bd 8d7a 15bd b7dd b23d 72a2 35bd
00000110: a117 cabd f0fa 9dbd 589f 003d c405 0fbd
00000120: 4247 873d 05c3 603d c8a3 873d 524a d1bd
00000130: e8b6 813c fb4e b4bc 55a2 7bbd 5dd3 65bc
00000140: 48cf d5bd f168 973c 6031 06be 2bec 5dbc
00000150: 0b0e f53c 7df9 743c d390 333d 1bed 12bd
00000160: 7a07 a8bd 13b5 723d fded 6dbb 0860 073d
00000170: 34fc 753d 8ba6 1bbc 9b35 6b3d be15 223d
00000180: c232 983d 86ad 8abc 7ba8 3d3c 117f bebc
00000190: c4ab 27bd a192 c43c bb20 2e3d 41e6 e13d
000001a0: 46c0 e1bd 259f cdbd ff30 94bd 9a0b dabd
000001b0: bcb0 e2bb e8cd 81bc 633f 8cbd 8024 96bd
000001c0: 084e 9abd c4f5 373c 251d 13be 43d4 4e3d
000001d0: 28b8 c73c d276 79bd 2e2f 0fbc 4db5 883d
000001e0: 9ba7 71bd c152 7c3c 5ed6 49bd a293 aebc
000001f0: 21c0 30bd 8bc7 983c 160c b33b dfdb ae3c
00000200: c504 20bd 1f59 9bbd b1d5 b9bd a42c 84bd
00000210: 139b 8ebc 222b 60bd 753c d43c e0d9 703c
00000220: 9c65 04bd ead1 69bd 9078 6bbd bbbb 803d
00000230: 7910 9b3d fe0f b73d d3ac 123d 8ac2 823b
00000240: 2978 f73c 2e47 0a3c c6cc 943c 9404 803d
00000250: 25fc f53c 0751 5c3d b30d a03c 7a38 7cbd
00000260: 06da a0bd d1e6 c2bd 1c64 943d 7750 893d
00000270: 72c5 613d 9b4d dc3d 78b7 1dbd b59b af3d
00000280: 0c8e b738 d8c1 c8bd 07fa 6dbc c962 a7bd
00000290: 10fc aebd 4306 34bc 4db1 b23c b566 30ba
000002a0: 2afc 763d a8ab 103d 5505 873d f1ad ef3c
000002b0: d74a 563c 2928 47bd a5b7 413d 9299 d6bc
000002c0: 5ed2 9fbd ac1a 01bc e5c5 263d 3b8f 283d
000002d0: 198a aebd 1183 99bc 1089 2a3d 2974 e83d
000002e0: b9ff 363d 4d89 dcbd 251d 683d 6416 0a3d
000002f0: 8207 43bd dc48 5c3d 3cb7 50bc ab5a 183d
00000300: ca32 58bd df34 c03c 979c 3d3d eba3 91ba
00000310: 08f5 333d 9b5c bc3a b0fc c0bd 4703 9ebd
00000320: 96d8 343d 218b 943d 677f 19bd 1773 813d
00000330: 475a 9dbc 9408 8cbb 1849 043d 5f7b 403c
00000340: 17fa bbbd 1af9 c7bd 4bed 94bd b6a8 183c
00000350: b09a c6bd 95aa ecbd e0f8 adbc d9d7 ad3c
00000360: bc04 eb3c e309 b4bc e0eb 10bc 5c5d 433c
00000370: 5e4a d23d a6c9 e3bd 5698 843d 1c92 86bc
00000380: 3fbe a53c 5ad6 35bc de32 583c d3b6 fdbc
00000390: caf0 76bd 1258 afbc c0ca 013c c526 993c
000003a0: 5d74 c7bc e476 10be 7e6b c73c fb7b ddbd
000003b0: d139 6b3d 7e77 6e3d f11b 94bd bad7 893c
000003c0: bbfe ddbc a434 5bbd ba12 3a3b c28d b03a
000003d0: b561 2d3d f59a c2bd 76af e6bc b38d 19bd
000003e0: 75e7 bdbd a727 043d b951 c7bd 2533 86bd
000003f0: 5620 e4bd 50e9 ba3d ef70 d8bd 241c de3d
0.037936445 -0.060477715 -0.10986638 0.036055394 0.06917389 0.006883658 0.08724581 0.0892556
-0.04005616 -0.010639414 -0.057358403 0.044531066 0.012140939 -0.062848866 0.028409757 -0.02590837
-0.045910142 -0.016944408 0.044041395 -0.021173172 0.04575544 -0.053324014 -0.057622664 -0.022970727
-0.049787004 0.033127382 0.09896485 -0.022191906 -0.004922444 0.07036371 -0.013910393 0.07684299
0.08682094 0.028734142 -0.031011976 0.007753984 -0.054158427 0.10006246 0.03888422 0.063125245
-0.06349941 0.00931148 -0.042448122 -0.00015998841 0.015241186 -0.01994194 0.11076354 -0.041576605
-0.01251694 -0.07076076 0.06964478 -0.0300585 0.048916735 0.00593066 -0.031042555 0.0528265
0.05697198 0.016041327 -0.027593607 0.047762897 -0.107876144 -0.076141745 -0.07956043 0.025386542
-0.08781735 -0.036493827 0.08733695 -0.044344373 -0.09867788 -0.07713878 0.031401962 -0.034917608
0.06605388 0.054873485 0.06623036 -0.102192536 0.015834287 -0.022010317 -0.06143411 -0.014027444
-0.104399264 0.018482657 -0.13104773 -0.013545076 0.029913923 0.014952061 0.043839287 -0.035870653
-0.08204551 0.059254717 -0.0036305182 0.033050567 0.060054973 -0.009500156 0.05742417 0.039571516
0.07431556 -0.016928446 0.011575813 -0.02325395 -0.040935293 0.0239957 0.042511683 0.110302456
-0.110230014 -0.1004012 -0.07235908 -0.10646744 -0.006918041 -0.015845254 -0.068480276 -0.073311806
-0.075344145 0.011228029 -0.14366587 0.050495397 0.024379805 -0.06090433 -0.008739276 0.066752054
-0.05899773 0.015400589 -0.049276702 -0.021310631 -0.04315198 0.018649837 0.0054640872 0.021345077
-0.03906705 -0.07585358 -0.090739615 -0.06453827 -0.01740793 -0.054728635 0.025907734 0.014700383
-0.032323465 -0.057084955 -0.057488024 0.06285807 0.07571501 0.08938597 0.03580935 0.003990476
0.030208664 0.008439822 0.01816405 0.06250873 0.030027458 0.05378821 0.019537782 -0.061577298
-0.07854085 -0.09516681 0.07245657 0.067048006 0.05511994 0.107569896 -0.038505048 0.08574621
8.752578e-05 -0.09802598 -0.014524943 -0.08173139 -0.08544171 -0.010987821 0.02181306 -0.0006729172
0.060299076 0.035319954 0.06592814 0.029257746 0.013079367 -0.048622284 0.047294278 -0.026196275
-0.07803796 -0.007879894 0.04071607 0.04115222 -0.08522434 -0.018739255 0.04163462 0.11350281
0.04467747 -0.107683755 0.05666842 0.03371276 -0.047614582 0.05378042 -0.012738999 0.037195843
-0.05278281 0.02346271 0.046291914 -0.0011111473 0.043934852 0.001437086 -0.09423196 -0.07715469
0.044151865 0.07253099 -0.037475016 0.0632078 -0.019208087 -0.0042734835 0.03229627 0.011748164
-0.0917856 -0.09764309 -0.072718225 0.009317568 -0.09697473 -0.115559734 -0.021236837 0.021221088
0.028688781 -0.02197737 -0.0088452995 0.011924114 0.10268091 -0.11122446 0.06474368 -0.016427092
0.020232318 -0.011098469 0.013195721 -0.030970966 -0.060288228 -0.0214043 0.0079218745 0.018695245
-0.024347479 -0.14107853 0.024343248 -0.10814663 0.057428185 0.058219425 -0.07231892 0.0168265
-0.027099004 -0.053517 0.002839251 0.0013469981 0.04232951 -0.09502212 -0.028159838 -0.03748865
-0.092726626 0.032264378 -0.09732384 -0.06552724 -0.1113898 0.09126532 -0.105684154 0.10845211

lstm.weight_ih_l1 f4 [512, 128]
00000000: 518e b43d 68ce 8d3d f943 aa3c b539 8fbd
00000010: 1b87 923d 1f70 4c3c 4a02 75bd c3f0 c1bd
00000020: effa e2bd 3c82 923d 5dcb 69bb 06f1 e6bc
00000030: d950 9a3d 8e14 83bc f121 2e3d e16f f4bc
00000040: d310 00bd 35f9 d1bd c011 743d 8c58 2eb9
00000050: 6c64 3dbd c65d bb3d fe89 e0bc 908b f6bc
00000060: fc37 82bd d04f 2c3d d2c0 8fbd 5a89 2d3b
00000070: ce30 1dbd 8848 633d 0db7 6fbc 8c9d 1ebd
00000080: fac5 b6bd 6f86 003d f3cb bbbd f30e 9e3d
00000090: b775 d0bc 102a 743d 11e8 adb9 2110 c33c
000000a0: aaea 05bd 6eb7 74bd cdc6 00bc 0075 4f3d
000000b0: 6802 45bd 7588 4bbd 7a39 253c c683 143c
000000c0: 7f73 ecbc fbad 453d f81d abbc 2106 85bd
000000d0: 991d 1abd fc70 a1bd 15b2 bd3d 26ce 12bd
000000e0: 3fb4 e1bc 9ce8 113d ba27 473d 07f3 0c3a
000000f0: 91d0 8cbc 367f 3a3d 856f cdbc 5d78 46bb
00000100: f4c3 043d fc4b 943d eee9 bfbd 1dbc 07bd
00000110: 2b57 aa3d 4967 213d 4563 c83d 6d6d 7a3c
00000120: 22f6 b7bd 079d 2cbd 12b2 c6bd 7201 d73c
00000130: faf4 2abd 3b91 dbbd cd8b 20bc 6435 8fbd
00000140: e041 c4bc ca44 573d 1ddd 16bd a19a caba
00000150: d0b6 c13c 160d febb ac2b a33d 869f c03d
00000160: 042d a6bd 74c1 a13c 4a90 fc3d 73b3 5ebd
00000170: 4a82 da3c c0f3 043d 35c2 c2bc 0ed8 05bd
00000180: 7582 9cbb 7122 21bc c60e 29bd bf9d 3cbc
00000190: dba3 013d 623a 6c3c db3d b4bd f324 c9bd
000001a0: 207a 38bd 8109 8ebd 9176 c63c f515 9abd
000001b0: cde5 64bd 1361 9f3c 5a5a 333d 6986 ea3a
000001c0: f9c5 673c 50e6 6a3d cded 13bd 85a0 a73d
000001d0: e426 95bd 33b2 243d bf09 963c c95b 883d
000001e0: 636b f0bc 1bfb 623d 42f4 4c3d c027 5f3d
000001f0: c560 18bc 79c3 7c3d 5c07 3c3c a23d 66bd
00000200: 9e5e 763d b395 16bd 0f16 403d 111b 4abd
00000210: 8596 a33d 7b12 0a3c e613 d5bd c767 943d
00000220: 0f55 923d a6ca d73d 4025 d23d 97e5 83bc
00000230: 64e7 9dbd 0655 5fbc fe14 493d b258 c03d
00000240: 905c 81bd 8e89 84bd 3242 97bd 251a 8dbd
00000250: 29f7 693d d4e7 d53c 6e5b 1e3d a7c0 4f3d
00000260: 7791 84bc ed08 cebd 1b9d 84bc e8d5 a1bd
00000270: b271 053e 9737 df3d 1e2f 933c c920 9c3c
00000280: 09d9 eb3c c07f 743c 90b2 983c 6f8e c73c
00000290: 4813 343d 5b6b b2bd 186a ae3c 97fa d2bd
000002a0: 1f88 b6bd e8e6 a4bb 22d5 bc3b e57f 0abd
000002b0: f407 db3d d106 a43d a20c c6bd e08f 1bbc
000002c0: 8706 32bd 001f d4bc 08e7 14bd 6a09 733d
000002d0: aeae c33d 0b73 b8bd 323c 7f3d 8519 c7bd
000002e0: 3884 31bd 35f7 8cbd d347 90bd 76fb 62bb
000002f0: 7fd8 8c3d 09a4 b9bd 3bd7 f8bc c5a5 5fbc
00000300: 06a9 4bbd c271 0c3d a887 98bb 8e27 413d
00000310: 5fe0 b9bb 9f71 7abd 9c2b 9c3c 00d4 883c
00000320: e6e9 be3d 43cd c53c 4df1 a3bd c1f6 c53d
00000330: 2f0e acbc 7c49 123d bcce 923d bb73 fd3d
00000340: 8a5d f53d fac0 e0bb 6372 d1bc 23cf 88bd
00000350: 8fdb f7bc ca36 39bd 1ef6 50bc 4bb9 c53d
00000360: f990 2b3d f12e 72bd 7695 a13c dd70 073e
00000370: 8767 da3d 3b12 cf3d 1e3a 483d 8c38 2c3d
00000380: b1a8 0abd 68f7 d8bd 5055 bc3c 18a8 3ebd
00000390: 3b8c 07bd addc b03d 1f35 0b3d c76c 09bd
000003a0: 9e54 b8b9 b018 68bd da26 d93b e75c d43d
000003b0: 3c7f bf3c 6d0e 8a3d 18ac ca3c e170 443d
000003c0: bb91 62bd 1c5d b53d c174 a83d d466 e53d
000003d0: 0cc2 96bb ab6d e7bd 3a4b 7f3b 5ee5 953d
000003e0: f82f 0db9 ce34 8fbc 1f2c c0bd bc9e 933d
000003f0: 576b 0b3c 1a3f 18bd 7db3 053e 3302 963d
0.08816207 0.069241345 0.020784365 -0.069934286 0.071546756 0.012477904 -0.059816636 -0.0946975
-0.11083018 0.071537465 -0.0035674192 -0.0281911 0.07534952 -0.016001012 0.042512838 -0.029838504
-0.031266045 -0.102526106 0.05958724 -0.0001662692 -0.046238348 0.09148745 -0.02740955 -0.030095845
-0.063583344 0.042068303 -0.070191994 0.0026479573 -0.038376622 0.055489093 -0.014631045 -0.038724467
-0.0892448 0.031378206 -0.091697596 0.07717695 -0.025446756 0.059610426 -0.00033170034 0.023811402
-0.032694496 -0.059745245 -0.007859898 0.05064869 -0.048097998 -0.049690682 0.010084504 0.00906462
-0.028863667 0.048261624 -0.020888314 -0.064953096 -0.037625883 -0.07882878 0.09262482 -0.03584113
-0.027551768 0.035622224 0.04862187 0.000537679 -0.017189296 0.045531474 -0.02507759 -0.0030284144
0.032413438 0.07241055 -0.093707904 -0.033138383 0.08317407 0.03940514 0.09784559 0.015284878
-0.08982493 -0.04214194 -0.09701933 0.026245806 -0.041737534 -0.1072106 -0.009798956 -0.06992605
-0.023957193 0.052555837 -0.036831964 -0.001545746 0.023646742 -0.007753025 0.07967314 0.09405427
-0.08114055 0.019745566 0.123322085 -0.054370355 0.026673455 0.03245902 -0.023774246 -0.03267675
-0.004776294 -0.009834872 -0.041273855 -0.011512219 0.031650405 0.014418216 -0.088008605 -0.09821501
-0.045038342 -0.069354065 0.024226459 -0.07523719 -0.055883218 0.019455468 0.043787338 0.001789284
0.014146321 0.05734855 -0.036115456 0.081849135 -0.072828084 0.040209007 0.018315194 0.06658132
-0.029348081 0.055415254 0.05003763 0.054481268 -0.009300415 0.061709855 0.011476364 -0.05621112
0.060148828 -0.036763858 0.046896037 -0.04934222 0.07987694 0.008427258 -0.10404186 0.072463565
0.0714513 0.10536699 0.10261011 -0.016100688 -0.0771015 -0.013631111 0.049092285 0.09391917
-0.06316483 -0.06471549 -0.07385673 -0.06889752 0.057120476 0.02611152 0.038661413 0.050720837
-0.016182644 -0.10060296 -0.016188195 -0.079021275 0.13031653 0.10899275 0.017966803 0.019058602
0.028790014 0.014923036 0.018639833 0.02435991 0.0439637 -0.08711883 0.021290824 -0.103017025
-0.08912682 -0.005032409 0.005762712 -0.033813376 0.10694876 0.080091126 -0.09670378 -0.009494752
-0.043463256 -0.025893688 -0.03635314 0.05933515 0.09554802 -0.09006318 0.062313266 -0.09721664
-0.043338984 -0.068830885 -0.070449494 -0.0034634746 0.06877231 -0.0906449 -0.030376067 -0.013650362
-0.04972174 0.034288175 -0.0046548434 0.047156863 -0.005672499 -0.061143514 0.019063763 0.016702652
0.09321956 0.024145728 -0.08005009 0.09666205 -0.021002857 0.03571461 0.07168338 0.123755895
0.11980732 -0.006858942 -0.02556724 -0.06680133 -0.03025606 -0.045218267 -0.012753991 0.096544825
0.041886304 -0.059126798 0.019724589 0.13226648 0.106642775 0.10110899 0.04888355 0.042046115
-0.033852283 -0.10594064 0.022989899 -0.046547025 -0.03309272 0.086358406 0.033986207 -0.033551004
-0.0003515826 -0.05666417 0.006626946 0.10369282 0.0233761 0.06741033 0.024740264 0.047959212
-0.05531476 0.0885565 0.08225394 0.112012535 -0.004600769 -0.113002144 0.003895475 0.07319139
-0.00013464678 -0.017481234 -0.093834154 0.072080106 0.0085094785 -0.037169553 0.1305675 0.07324638

lstm.weight_hh_l1 f4 [512, 128]
00000000: b5f9 f8bc fda5 e33b 31d4 cfbc 22eb 013c
00000010: 733f 7fbc 9ddc cc3c bf7e babd 6cb7 93bc
00000020: 6b61 12bd ff8c 043e 13bd 823d 30a6 56bd
00000030: cf99 29bb 8e77 83bd 4f86 3c3d c361 08bc
00000040: b231 823d 47d7 12bd 8a75 ffbd 7a6f ba3b
00000050: 72b9 16bd 2a92 933d 6497 c03b 4a30 39bd
00000060: 7b8f bb3d 730e 72bd 6b9a 9f3d c97f d23b
00000070: 8247 173c 77c5 d4bd 3957 91bd 58b1 20ba
00000080: 72d7 b0bd 7a53 e83d 9755 01bd c9e7 963c
00000090: 25a5 bfbd 413d 0a3b b9c1 b23d c769 80bc
000000a0: 7e21 b6ba f4f1 bf3b 2296 c23d 4d13 0e3d
000000b0: b9ab 44bd dc04 bb3d 01be 663c c9b3 853c
000000c0: f50e 89bd 2296 57bd 499d 72bd 2572 4b3d
000000d0: 2c58 863d a5cf 80bd 3c9b 9fbd e3df 993c
000000e0: b6df 393e c08e e13c e184 08bd 6d0d bdbd
000000f0: 3cfc 5dbc 473c 9ebd a226 193d 6cbb d1bb
00000100: fd9b 85bd 7e5e ad3c 8eb8 0d3a 2dfc 89bc
00000110: 4f00 a5bc 10c2 ff3d b44d 543c 03d8 a6bd
00000120: 71c9 3b3c 8137 0fbd 1db8 c5bd 2224 ba3d
00000130: 3981 933d 133e 4b3c 91e3 edba a956 53bc
00000140: d504 86bd fbc0 92bc 46f3 003c 6c3e aebd
00000150: dad4 c23d c764 88bd 69d9 843c ef2f 91bc
00000160: e7fe ecbd 155a ab3c 6d58 bf3d abf5 853c
00000170: ca6c e9bb 6388 c63d 856c 11bd 5e0c 973c
00000180: e6cd d23d ba08 e13c a617 083d c7af b63c
00000190: 7fae b6bd 64b0 343d 50a0 e2bc ea3d fc3d
000001a0: 5f1a 8c3d 44bf 8abd ed78 e23d 61c5 5b3b
000001b0: afe1 6b3d 95f6 fc3d d100 813d dfdd 30bd
000001c0: e903 c9bd db1d 0cbe f5dd d9bc ff18 f53c
000001d0: b634 a13b e5f2 19bd ab5d f43d 4082 6dbc
000001e0: 15ea ad3d 08c5 62bd aedd 61bc 3fdc 1abd
000001f0: c248 243d 6bca ad3c 6dae 5a3d 4b2f bf3c
00000200: 4174 b33d cbc3 c03d 2bb3 70bd 39f4 3abd
00000210: 5329 313d e3ae 0bbd 5fef b83b 3187 bfbd
00000220: 9f5a 7a3d cbee acbc 02a6 3abd 53e9 09bd
00000230: 0efd 74bc 47d8 97bd add0 e23d 6026 513d
00000240: d575 c6bc d697 e83b 990f 8a3b fc58 3cbd
00000250: 0339 50bd d242 c83d e5b5 67bd 5219 a5ba
00000260: c05d aebc 58bf a8bd 1f3a 8abd c284 8cbd
00000270: 347a 6cbd cd25 bebc cc88 913c a3ff e23c
00000280: a9b6 2bbd 1b7d 153d 892d d5bc 0eca a7bd
00000290: 4eaf 693d 20de 0f3d cb6f 053d e22e 95bd
000002a0: 8e8f 8dbc b9ae 603d fa99 6f39 2755 8fbd
000002b0: d5c7 8dbc 3339 3b3d 6e05 673c 7238 293d
000002c0: f963 343c 9187 a43d fc52 e9bc bf47 37bd
000002d0: 009e f33d f7f8 febd 115d fcbd 46d5 86bd
000002e0: 97ba da3c 3711 b13c 755d e1bd 8f7f 133d
000002f0: b28b 9cbc debb b7bd 7991 25bd 167c 51bd
00000300: 3f6c af3d ab4c 42bb bd78 2c3d 214c adbd
00000310: ec39 133d 14c3 293d 5fcd cd3c 7340 abbb
00000320: 76c0 573c cbe3 9cbd 4ab2 923c fce3 d03d
00000330: b6fa 153c d04d 2cbd ce03 16bd e983 10bd
00000340: 0c53 a13d e7b9 273d 18d9 c4b7 0ffc 80bd
00000350: cbad fa3d bee6 8d3d c8e0 0b3e 9db9 bfbd
00000360: ccbf 733d 7823 6dbd 23e0 2bbd 5f7b 2abd
00000370: 7632 ab3d 16be 583d feaa 583d 4847 aa3d
00000380: 05cb aa3d c567 f4bd e5d9 a1bc 4ada 18bd
00000390: 10e7 11bd e800 5cbd c2e2 5ebd 2225 363d
000003a0: de3f d23d e817 943c 5afb af3d 32bc 6fbc
000003b0: 45af bbbd 701b 94bc a9d6 c9bc 449d 023b
000003c0: 20be aabd b40b 473c d970 dcbc f3a6 84bb
000003d0: 6bd7 bebc 5460 30bd 3601 503d 1d90 e83b
000003e0: e491 76bd f957 ce3d ba2d dcbc 94d4 16bd
000003f0: 6b8c cabc 932c 593d 09d4 223d cb03 9d3d
-0.030392507 0.0069472776 -0.025369735 0.007929595 -0.015579092 0.02500754 -0.09106206 -0.018031798
-0.035737436 0.1294441 0.06383719 -0.052404583 -0.002587903 -0.064192876 0.046026524 -0.008324089
0.06357135 -0.035849836 -0.12473591 0.0056895586 -0.03679795 0.07205613 0.005877422 -0.045212068
0.09158226 -0.05909581 0.07793125 0.0064239246 0.009233357 -0.10389226 -0.070967145 -0.0006129942
-0.08634843 0.11344047 -0.031575765 0.01842107 -0.09357671 0.002109364 0.08728356 -0.015675439
-0.001389548 0.0058577005 0.09501292 0.034686375 -0.04801533 0.09131786 0.014083386 0.01632108
-0.06692306 -0.052633412 -0.05923203 0.049669404 0.06559786 -0.06289605 -0.077932805 0.018783515
0.18151745 0.027533889 -0.03332985 -0.092310764 -0.013548907 -0.07726341 0.03739036 -0.0064005163
-0.06523893 0.021163221 0.0005406224 -0.01684388 -0.020141749 0.12488186 0.012957979 -0.0814667
0.011461602 -0.034965042 -0.096542574 0.09088923 0.07202382 0.012404936 -0.0018149485 -0.012899079
-0.065438904 -0.017914286 0.007870501 -0.08508 0.095132545 -0.06659847 0.01621695 -0.017723052
-0.11572056 0.020916978 0.09343038 0.016352495 -0.0071235644 0.096939825 -0.035503883 0.018438514
0.10293178 0.027469981 0.033225678 0.022300614 -0.08920001 0.04411353 -0.027664334 0.12316497
0.068409674 -0.06774762 0.11058221 0.0033534395 0.057588276 0.12351719 0.06298984 -0.043180343
-0.09815199 -0.13683264 -0.026595095 0.029919146 0.0049196137 -0.037585158 0.11931928 -0.014496386
0.08491913 -0.055363685 -0.013785763 -0.0378077 0.04010845 0.021214684 0.053389 0.02333798
0.08762408 0.094123445 -0.058764618 -0.045643065 0.0432523 -0.03410233 0.0056437696 -0.093519576
0.06112158 -0.02110996 -0.045568474 -0.03366978 -0.014952911 -0.074142985 0.11074958 0.051061988
-0.024226109 0.0070981784 0.004213285 -0.0459833 -0.05083562 0.0977837 -0.056569953 -0.0012596047
-0.021284938 -0.08239621 -0.06749367 -0.06861259 -0.05773373 -0.023211384 0.017765425 0.027709788
-0.041922245 0.036496263 -0.02602269 -0.08192836 0.05705195 0.035123944 0.032577317 -0.07284333
-0.017280366 0.05485413 0.00022850177 -0.069986634 -0.017307201 0.045708846 0.014100416 0.041313596
0.011010163 0.0803367 -0.028481953 -0.044746157 0.118953705 -0.1244983 -0.123224385 -0.065836474
0.026700301 0.021614654 -0.11004154 0.03601032 -0.01910958 -0.0897138 -0.040421937 -0.05114373
0.08565568 -0.0029647748 0.042107332 -0.08461786 0.03594391 0.041445807 0.025122343 -0.005226189
0.013168445 -0.076606356 0.01790728 0.101997346 0.009154012 -0.042066395 -0.036624722 -0.03528205
0.07877168 0.040948775 -2.3466113e-05 -0.06298076 0.1224018 0.06928776 0.13659966 -0.09361575
0.059509084 -0.057895154 -0.0419618 -0.041621562 0.08359234 0.052915655 0.052897446 0.08314377
0.08339504 -0.11933855 -0.01975722 -0.03731755 -0.03562075 -0.0537118 -0.05441547 0.044469006
0.10266088 0.018077806 0.085928634 -0.014632272 -0.091642894 -0.01807949 -0.02463849 0.0019930163
-0.08337045 0.012148786 -0.026909279 -0.004048222 -0.023296079 -0.043060616 0.050782405 0.0070972578
-0.060197726 0.10075373 -0.026877273 -0.036823824 -0.02472516 0.053021025 0.039752994 0.07666739

lstm.bias_ih_l1 f4 [512]
00000000: d287 b2b8 1844 66bc 8df3 ccbd 8787 76bd
00000010: a851 a2bc db52 69bd 6aa1 b23b 6926 833d
00000020: 5347 42bb 17b6 473d 1482 12bc a12f a73c
00000030: 0fdc 8bbd f125 413d 5e3f 60bd ea53 bbbd
00000040: 9bd1 8d3c c791 f43c 7a34 e9bd 3618 32bd
00000050: 8957 dfbc 1a55 203d 4f13 d7bc 1749 61bd
00000060: 2240 28bd 5980 4c3d 6ab8 8fbd 825a 98bc
00000070: ea21 5d3c fe39 0ebe 4d9b f8bb 39ac cdbd
00000080: b1a6 8cbd 8a9f 873d 7e3d 2bbd 851f 31bd
00000090: bc62 ed3c 1020 47bd 12c0 0a3d 7200 693c
000000a0: 02ef 1d3d ee80 c0bd 46d9 43bd 2b90 7e3d
000000b0: 0005 363d cc2f d9bc 36e8 b23b 5810 52bc
000000c0: 0d6d c3bd 39d2 b4bd 5de3 67bc e7e9 b3bc
000000d0: ac43 b5bd 67dd 02bd 9996 983c 8b1a 813b
000000e0: c413 663d 6135 9abd 24b0 38bd 9522 c63d
000000f0: 6be5 98bc 5610 bc3d 3eb6 2bbd b96f c0bc
00000100: f39e bbbc 7588 9f3b 1b0e 24bd 131e 00be
00000110: 6e1b 123d b743 ad3c 9cfb 9ebd b013 b7bc
00000120: fce6 673d 6bd4 3f3d 7a03 af3d d86f c03c
00000130: b989 3b3c 8eca 863d 8438 1a3c c33e adbd
00000140: 8adb bdbd 42a0 52bd da4c 39bd 3bc3 babd
00000150: 315e 64bd 4ddf c83c bfdd adbb 85d4 b8bd
00000160: 81cb a9bd 4cb4 c73d 7c0b 08bc b645 4e3d
00000170: 1f38 e4bd 4dc7 4e3d 7b3a 98bc 7ada 8b3d
00000180: 5d28 843d 2c46 9cbd 81a2 67bd 6d55 983c
00000190: 260e 64bd 4e6a 963c e9e1 a03d 9a06 83bd
000001a0: 5789 35bd 5e33 87bd e3be 213d fa8f 37bd
000001b0: 3430 8cbc 3dc7 283d 2067 20bd 4f05 0fbd
000001c0: ba6e 093c d2b6 933d 153a 5b3d 4090 5abb
000001d0: f0a7 a7bc 4da7 c3bd 1af0 05bd a3df 81bd
000001e0: a8e5 863d 9b83 aabd 8e31 91bd b889 ad3a
000001f0: e9e5 fd3d 0ff0 aa3c 9ae4 423d 5011 00be
00000200: d9da 74bd d696 98bd a0e4 cc3c cba8 ccbc
00000210: f6a1 103d 7d73 94bd 3727 1f3d 6ba3 c03d
00000220: 5009 3e3d 802d d1bd 11e4 403c c6ed 063c
00000230: fa62 c2bc bcfd 98bd 68f4 bcbc 7452 b53c
00000240: e133 96bd ce2c 9dbd 88e7 bebd 4b18 cdbc
00000250: e2af d23d 2702 893d 61fe e13c 4e50 aabb
00000260: 8ce1 32bc 3c0c ac3b ecee 07bd c2c0 ccbd
00000270: b1cc 9bbd 687c 0cbe 3cf0 8a3c 14a1 08bd
00000280: dc0e 033d e56c ed3c bfd2 9aba f966 a3bd
00000290: 1c34 5dbc 91ac ad3d c853 c7bd b554 223d
000002a0: 107c b9bc 9630 76bd 7fb4 8fbd 5bd8 f3bc
000002b0: a324 b3bc 4197 65bc 0d0e bb3c 29b9 9bbc
000002c0: bc75 87bd 60e8 1c3d beff 04bd 62da 91bd
000002d0: f2b6 63bd 4485 c9ba 110a 35bd af58 3dbd
000002e0: 6357 663d 1d92 12bd 5cdc 6fbd 292e 8f3d
000002f0: 628f 053d 835c 883d 2a87 4abd 989a 90bc
00000300: 44eb ffbc d67b 263c a268 71bd 65f1 a0bc
00000310: 3241 0fbd 66ab dcbd 49e1 a3bd 223b 5a3c
00000320: c79b 0abc 4244 6dbd f0c3 7d3a ef7a c9bd
00000330: cff4 423d fe09 cabc 29cb af3c 4dd1 25bd
00000340: 1f9a 81bd 3467 a1bd f871 4ebd 7ff6 87bc
00000350: 655c 563d 519c babd 1f71 f1bb 2a2a 8a3d
00000360: 8a67 1c3d 003c b9bc ff03 a3bd f77d 12bd
00000370: 1864 94bd 584d 8fbd 9f56 a4bd 876c 543d
00000380: 3687 bf3d c6ce dabd 87a3 87bd aefb d3bd
00000390: 88c0 9bbd 9d75 343d 5072 b5bc bf76 36bd
000003a0: 2bad ffbb 0529 5cbd 7da1 b03d 957e 1c3c
000003b0: 9bd2 88bc 447f 393c feb8 593d 1196 0e3d
000003c0: b236 8cbd 4d98 7a3d 9675 87bc 4263 87bd
000003d0: 5d58 a7bd cc21 25bd 1c1b 883c 1bb3 17bd
000003e0: 4958 cdbb 8130 debc 314d 0d3c da2c f9bc
000003f0: 96e7 f83d 2217 2c3d 395d 9dbd c43f f2bc
-8.513e-05 -0.014054321 -0.10007391 -0.060187843 -0.019814327 -0.056963783 0.005451371 0.064038105
-0.0029644563 0.04875764 -0.008942146 0.020408453 -0.06829082 0.047155324 -0.05474793 -0.09146865
0.017311862 0.029854668 -0.11386962 -0.04348012 -0.02726342 0.03914366 -0.026254324 -0.055001345
-0.041076787 0.04992709 -0.07017596 -0.018597845 0.013496855 -0.1388931 -0.0075868727 -0.100426145
-0.06867731 0.066222265 -0.04180669 -0.04324295 0.028977744 -0.04861456 0.03387458 0.014221298
0.038558014 -0.093995914 -0.04781463 0.062149208 0.044438362 -0.02651205 0.0054598106 -0.0128212795
-0.09542284 -0.08829159 -0.014153329 -0.02196212 -0.08850798 -0.031949427 0.018626498 0.0039399317
0.056171194 -0.075297125 -0.045089856 0.09674565 -0.018664083 0.09182803 -0.041921847 -0.023490774
-0.022902941 0.004868562 -0.040052515 -0.12511472 0.03567069 0.021150453 -0.077628344 -0.022348255
0.05661677 0.046833437 0.08545585 0.023490831 0.01144641 0.06581603 0.009412888 -0.084592365
-0.092703894 -0.051422365 -0.045239307 -0.091192685 -0.05575389 0.02452054 -0.005305975 -0.0902491
-0.082907684 0.09751186 -0.008303519 0.05035945 -0.11143517 0.050483037 -0.018582573 0.068287805
0.06453011 -0.07630572 -0.05655146 0.018595422 -0.055677556 0.018361237 0.07855589 -0.063977435
-0.04432043 -0.066015944 0.039488684 -0.04481504 -0.017112829 0.041205633 -0.039160848 -0.034917172
0.008388216 0.072126046 0.05352219 -0.003335014 -0.020465821 -0.095533945 -0.03269968 -0.063414834
0.06586772 -0.08325883 -0.0708953 0.0013239896 0.123973675 0.020866422 0.047581293 -0.12506604
-0.059779022 -0.07450645 0.02501136 -0.02498283 0.035310708 -0.0724859 0.038855758 0.094061695
0.0463956 -0.102137566 0.011773125 0.008235401 -0.023728836 -0.07470271 -0.02306576 0.022134043
-0.07334114 -0.076745614 -0.09321505 -0.025035998 0.10287453 0.06689864 0.027587118 -0.0051975613
-0.010918032 0.005250482 -0.033186838 -0.09997703 -0.07607401 -0.13719332 0.016960256 -0.03335674
0.031996593 0.028982589 -0.0011812075 -0.07978625 -0.013501193 0.0848018 -0.09732777 0.039631564
-0.022642165 -0.06010493 -0.07016849 -0.029766252 -0.021868056 -0.0140131125 0.022833848 -0.01900919
-0.06614253 0.038307548 -0.032470457 -0.07121731 -0.055594392 -0.0015374799 -0.044199053 -0.046227153
0.056235682 -0.035783876 -0.05855976 0.06991226 0.032607444 0.0665827 -0.04944531 -0.017651841
-0.031240113 0.010161361 -0.058937676 -0.019646356 -0.034974284 -0.10774879 -0.08001954 0.013319762
-0.008459992 -0.057926424 0.0009680381 -0.09837901 0.04759675 -0.024662968 0.021459179 -0.040482808
-0.063282244 -0.078810126 -0.050401658 -0.01659703 0.052334208 -0.09111846 -0.0073682214 0.067463234
0.03818468 -0.022611618 -0.079597466 -0.03576466 -0.07245654 -0.06997174 -0.08024334 0.051861312
0.09351961 -0.1068397 -0.06622987 -0.103507385 -0.07605082 0.044057477 -0.022149235 -0.04454684
-0.0078026257 -0.053750057 0.086245514 0.009551664 -0.016701987 0.011321846 0.053154938 0.034811083
-0.0684637 0.0611804 -0.016535562 -0.06610729 -0.08171151 -0.040315434 0.01661449 -0.037036043
-0.006266628 -0.027122738 0.008624361 -0.030416895 0.121535465 0.04201425 -0.076837964 -0.029571421
